models/student_model.pth (torch, 698781 bytes, 6 tensors)

conv1.weight f4 [16, 1, 3, 3]
000000 ce 05 6f bd 9c e5 ea 3d 71 84 bd 3d e8 8c 8e 3e
       -0.058355145 0.11469576 0.09253777 0.27841878
000010 74 97 0b bd 03 47 61 be be 52 55 3e 4d f2 d2 be
       -0.034079984 -0.21999745 0.20832345 -0.41200486
000020 0e c4 3d 3e ae 8f 47 3e bc f0 70 3e a8 c2 f6 3d
       0.1853182 0.19488403 0.23529333 0.120488465
000030 57 9e 77 3e dd 20 05 be 1e 74 d8 bb 8f d4 8d 3e
       0.24181496 -0.13000818 -0.006605639 0.27701232
000040 c0 6e 7a 3e 72 d9 b4 3e c7 ed 17 3f 16 a3 23 be
       0.2445631 0.35322148 0.59347194 -0.15980181
000050 ff db 0b bf 4f 7e 1d 3f f7 50 80 be fa 0d 9e be
       -0.5463256 0.61520857 -0.2506177 -0.30870038
000060 f5 54 a1 3c 7b be bb be 20 c1 9c be c9 41 b9 3d
       0.019693831 -0.36668763 -0.30616093 0.09045751
000070 1a 7a 59 3d f8 71 1d bf 4e e7 bf 3e 1b 32 34 3e
       0.05309496 -0.6150203 0.3748116 0.17597239
000080 35 e1 0d bf 74 92 34 3c 97 5b d9 3e 0d 42 8b 3e
       -0.55421764 0.011021245 0.4245269 0.2719883
000090 16 ec 8b be 98 7d 6c 3e 36 41 ab 3e 60 d9 97 3e
       -0.27328557 0.23094785 0.3344819 0.2965803
0000a0 19 77 10 3e c8 e8 9f be 37 0f 98 3e 80 79 27 3e
       0.14107932 -0.31232285 0.29699108 0.16354942
0000b0 6f 35 f6 be be f4 77 3e 33 80 97 3e e4 d6 b2 3c
       -0.48087642 0.24214455 0.29589996 0.021830983
0000c0 f1 cd 21 be 4c b8 06 bd 23 99 aa 3e 11 c6 25 3d
       -0.15801217 -0.032890603 0.3331996 0.040472094
0000d0 4e 26 83 3e 3a 95 eb bd 69 8c a7 3d 5d bb a6 3e
       0.25615162 -0.11503072 0.08181078 0.32564822
0000e0 85 ee 38 3e 91 fd 00 bf 90 ab 87 3e d0 95 a4 3e
       0.18059738 -0.5038691 0.2649808 0.32145548
0000f0 38 01 be be cf 4a da be 71 33 9e be f2 65 bb be
       -0.37110305 -0.426352 -0.30898622 -0.36601216
000100 f3 32 c4 3d cf 81 98 be d5 ec c7 be d6 c7 a3 be
       0.0958003 -0.29786536 -0.39047876 -0.319884
000110 b1 d8 7b be e7 d9 6c 3e 89 58 85 be 8e f4 39 be
       -0.2459438 0.23129998 -0.2604411 -0.18159696
000120 c8 32 8d 3e e6 d3 a1 be 9b b3 8f 3b 10 49 3b be
       0.27577806 -0.31606978 0.0043854243 -0.1828959
000130 4e 32 ab 3e 1c 59 46 3e f5 28 66 3d 52 01 95 bd
       0.33436817 0.1936993 0.056191403 -0.072756425
000140 d6 c0 a5 3d ad f1 8d bb 86 67 d5 3e 02 2b de 3e
       0.08093421 -0.0043317885 0.41680545 0.43392187
000150 1d 5a 2b 3e e3 19 82 bd ca 12 15 3e b9 74 f8 be
       0.16733594 -0.06352594 0.14557949 -0.48526552
000160 d8 ba ef be f4 46 22 bf 52 74 73 3e af e8 a7 3e
       -0.46822238 -0.63389516 0.23774841 0.3279471
000170 fc a1 41 3e 80 79 49 be 05 04 d6 bd d5 c9 94 3e
       0.18909448 -0.19675255 -0.104499854 0.29060236
000180 25 4c 23 be bb 9e 85 be 9d af c1 3e cb c9 83 be
       -0.15947016 -0.26097664 0.37829295 -0.25739893
000190 c0 a4 04 be 3f a5 f4 3e 79 5d 82 be 45 ea 13 bf
       -0.12953472 0.47782323 -0.2546194 -0.5777934
0001a0 1a e1 e2 3e c1 64 09 3f b6 ee cc be 84 6b a8 be
       0.44312364 0.53669363 -0.40025872 -0.32894528
0001b0 ae 9e 26 be dc 6a d1 3e 3a 8f b4 bd 86 05 8b 3e
       -0.16271469 0.4090184 -0.08816381 0.27152652
0001c0 92 0f e2 3e d6 07 29 be 8d 32 ae 3c 8e cb 21 be
       0.44152504 -0.16506895 0.021264339 -0.15800306
0001d0 7e da 12 bf 52 ca 26 be 65 78 9e be 5e 72 c9 bd
       -0.5736464 -0.16288117 -0.3095123 -0.09836267
0001e0 5b 60 92 3e c1 1a 63 be ed 74 20 be 4e 63 c2 3e
       0.28589138 -0.22178175 -0.15669604 0.37966388
0001f0 9c 63 a4 be b1 08 1a be 22 2d f8 3d 2a bd 7b 3e
       -0.32107246 -0.15042378 0.121179834 0.24583879
000200 12 a3 bf be 30 81 a6 be 8c 83 57 be 67 ee 6b 3e
       -0.374291 -0.32520437 -0.21046275 0.23040162
000210 18 2b 84 3e 5c de 7e 3e fa 16 2e 3e 00 87 d7 be
       0.25814128 0.24889511 0.17000952 -0.42095184
000220 85 84 82 be 83 aa 1d bf 63 a0 e2 be 82 b0 cd 3d
       -0.2549173 -0.61588305 -0.4426299 0.10043432
000230 0f 3f 9f 3e 1e 97 11 3f 7f 1a 5e 3e 7d 53 1e 3d
       0.31102797 0.5687121 0.21689795 0.03865384

conv1.bias f4 [16]
000000 ca 55 6d 3d 0a 1c 83 be 72 84 40 bd 7b f6 a9 be
       0.057943143 -0.2560733 -0.04700131 -0.33195862
000010 8a e8 5a 3e 92 76 2f be c4 69 06 3e 0c dd 55 3e
       0.21377769 -0.17135075 0.13126284 0.20885104
000020 ae 2b 20 3e d0 d0 3b be bc 09 f1 be a2 6b e3 bd
       0.15641662 -0.18341374 -0.4707774 -0.11104514
000030 a2 82 84 bd 01 5a 18 3e ee f2 5b 3e 3a 9e d8 3c
       -0.06470229 0.14878084 0.21479389 0.026442636

fc1.weight f4 [64, 2704]
000000 4c 0c 05 be 14 82 5a bd 02 85 8c bd 72 ae c0 bd
       -0.12992972 -0.05334671 -0.06861307 -0.09408273
000010 44 2b 3d bd e6 bc b3 bc 0e a3 87 3b c3 ec 10 bc
       -0.04618384 -0.02194066 0.0041393107 -0.008845511
000020 c6 fc 2d bb 7a 4f 03 3d 19 01 1f 3d f2 e9 2a 3d
       -0.002654837 0.032058217 0.038819406 0.041727014
000030 28 1f 20 3d 3e e2 89 bc c6 f3 a8 bb 4a 45 68 bc
       0.039092213 -0.016831513 -0.005156013 -0.014176676
000040 ae d6 76 3d f0 bc f7 3a ba 5e 69 3d 68 6d 73 3c
       0.06026333 0.0018900912 0.056975104 0.014857627
000050 e5 d6 9a bc dd c9 1d bd f8 bb 08 3c c5 a0 4e 3d
       -0.018901298 -0.03852259 0.0083455965 0.05044629
000060 8e b9 d0 3c 3c 77 04 3d 02 d5 9f bd 2c 00 a5 bc
       0.025479104 0.032340273 -0.078043 -0.020141684
000070 04 ba 03 bd 5a 75 b1 3c 31 63 f5 ba 19 7b c2 3c
       -0.03215982 0.021662403 -0.0018721578 0.023740338
000080 fe e2 c7 3b d5 76 af bc ef 97 9c 3b 1e fe 3c 3b
       0.0061000576 -0.021418968 0.004778854 0.002883799
000090 b5 57 a5 3c 42 2a 63 3d db 04 67 3c b4 ff 2f 3d
       0.020183424 0.055460222 0.014100279 0.042968467
0000a0 23 e5 00 3d 2e ea 1c ba ab a2 8b 3c eb c7 0e bc
       0.03146852 -0.0005985823 0.01704534 -0.008714656
0000b0 cd f5 c0 3b 6a 74 a1 3b 5e 09 96 bc e6 c7 97 3c
       0.0058886767 0.0049272077 -0.018315013 0.018527936
0000c0 e3 b6 10 3d 4a 9c 06 bc 7d e1 ea 3b 81 aa e2 3c
       0.035330664 -0.008215973 0.0071679936 0.027669193
0000d0 05 51 67 3b c1 63 a1 bb 4f a7 ff 3c 10 d7 56 3c
       0.0035296094 -0.0049252217 0.031207709 0.013112798
0000e0 08 e6 8a bc a9 8a 18 bc fe 36 ef bc 1f b2 2e bd
       -0.01695539 -0.009310403 -0.029201027 -0.04265034
0000f0 6a 47 1e 3c 90 b1 51 3d 94 20 e6 3c 00 24 92 39
       0.009660581 0.051194727 0.028091706 0.00027874112
000100 a6 95 e4 3c ef 05 85 bc 1c 41 a4 3c d6 18 d9 3c
       0.02790339 -0.01623818 0.020050578 0.0265011
000110 92 7c 60 3c 92 91 95 3c 2d b1 fa 3c bd 23 c2 bb
       0.013701575 0.01825789 0.030602062 -0.0059246705
000120 93 d8 9b bd 0c 32 06 bc d3 d3 13 3c 2d 37 bd 3c
       -0.07609668 -0.008190643 0.009022671 0.023097599
000130 31 15 08 3d 55 dd 01 3d 5f 2f 2c bd 26 80 d5 bc
       0.033223335 0.03170522 -0.042037364 -0.026062082
000140 ad 3d d2 3c 82 89 d3 3b 24 60 2d 3d a1 61 9a 3c
       0.025664175 0.006455601 0.042328015 0.018845381
000150 cf d7 4f bc 8f 95 66 bd 31 5a 64 bc fa 19 27 bc
       -0.01268573 -0.056294974 -0.013937519 -0.010199064
000160 40 8a 8f 3c 3c 3d da 3c c9 21 b8 3c 65 60 b5 bd
       0.017521977 0.026640527 0.022477048 -0.088562764
000170 15 b1 78 bc a8 30 bb 3c f6 ad 3f 3d 0e 18 02 3d
       -0.015178938 0.02285035 0.04679676 0.03176122
000180 3d 49 f8 3b 83 85 50 bd 8c 19 d2 bd 1b 59 96 bb
       0.00757709 -0.050908577 -0.10258779 -0.004588259
000190 4d ff 5a 3c 14 13 af 3c 00 05 e0 3c 88 4b 4e 3b
       0.0133665325 0.021371402 0.027346134 0.0031478126
0001a0 9f 9b 09 bc 60 f9 ba bb 0f f6 73 3d 6a 3c 47 3d
       -0.008398919 -0.0057059973 0.05956083 0.0486416
0001b0 c0 17 37 3d 34 d6 33 bc f0 e3 fb bd 53 95 25 bd
       0.044700384 -0.010976363 -0.12299335 -0.04042561
0001c0 85 d3 bf 3c 6c ca ab 3c 6a bf 4c 3b 33 ef 03 3d
       0.02341629 0.020970546 0.0031242021 0.03221054
0001d0 f6 99 1d 3d e2 fc d4 3c e3 32 86 3d 74 31 29 3d
       0.038476907 0.02599949 0.065526746 0.041306928
0001e0 4b 25 c6 3c cf 20 aa 3c 25 bf 30 bd 0f 3e 3e bd
       0.024187705 0.020767597 -0.04315104 -0.046445902
0001f0 0c cf 43 3c 4d 60 6d bc 65 b2 ed 3c 87 0e 4d 3c
       0.011951219 -0.014488292 0.02901573 0.012515671
000200 ac 2d d4 3c 26 55 dc bc 2b a6 3f bd 7f 3e 71 3c
       0.025900684 -0.02689607 -0.04678933 0.014724373
000210 0e 5e 3b 3d b9 b5 86 3c 9f b8 26 3c 83 ad 88 bc
       0.045743994 0.016444074 0.010175853 -0.0166843
000220 58 d7 93 bc 17 02 91 bc 2e 0f 36 3b 90 0f 93 3c
       -0.01804702 -0.017701192 0.0027780044 0.017951757
000230 1f c2 b7 3c 4e 85 50 3d 13 88 02 bc 6f 41 80 bd
       0.022431431 0.05090838 -0.007967013 -0.062624805
000240 15 d6 8c 3c 32 eb 35 3d e2 b7 65 3c 86 72 aa bc
       0.017191926 0.044413753 0.014020892 -0.020806562
000250 c7 35 8e bc 64 6c 29 3c ab b0 bc bc 68 f1 23 bc
       -0.017359627 0.010340784 -0.02303346 -0.010006286
000260 57 b3 e1 3c 31 c8 1a bb 8d f2 0e bd 73 30 28 bd
       0.027551336 -0.0023617859 -0.034899283 -0.04106183
000270 87 bb 46 3b d3 dc 9f bc 92 b8 fd bc 6a 52 83 bd
       0.0030324177 -0.019514477 -0.030971799 -0.064122036
000280 0c 38 09 bc 67 26 67 bd f7 75 0a bd 13 4b a3 bc
       -0.008375179 -0.056433108 -0.033803906 -0.01993326
000290 35 b9 30 bd 82 f2 66 bd 75 9a 77 bd 43 b1 f1 bc
       -0.043145377 -0.056383617 -0.060450036 -0.02950347
0002a0 c8 9e c2 bc c5 72 0c 3b 9a f5 0b bc f5 3d 96 3a
       -0.023757353 0.0021430713 -0.008542443 0.0011462556
0002b0 50 94 be bc 1e c4 87 39 75 5f b4 bb bc 83 50 bd
       -0.02326408 0.00025895325 -0.0055045434 -0.05090688
0002c0 15 fe 18 bd 65 32 87 bd 5f 7c 18 bd f0 95 35 3c
       -0.037351687 -0.06601409 -0.037227985 0.011083111
0002d0 40 36 4f 3d 4e fa a6 3d e3 06 fd bb 6f 9c 0c bc
       0.050588846 0.081532106 -0.007721768 -0.008582219
0002e0 34 f6 41 3d 15 58 97 3c 55 7f 7e bc 3e bf 55 bc
       0.04735394 0.018474618 -0.015533288 -0.013046084
0002f0 64 b8 97 3c fb 74 67 bb 9e 85 af bc d1 ec 6e bc
       0.018520541 -0.0035317529 -0.021426018 -0.014582829
000300 63 18 cb 3c fd ec 95 bc e6 5c 71 3c 28 7f e3 3b
       0.024791902 -0.018301481 0.014731621 0.0069426484
000310 0d 1c 84 bb f5 ef a4 3c 9d 73 56 bc 7a 45 43 3c
       -0.004031664 0.020133952 -0.013089088 0.01191842
000320 19 0f a5 3b f0 73 e3 bb fc 26 a0 39 33 36 ab 3c
       0.0050372 -0.006941311 0.00030546624 0.020899868
000330 26 bc 0e 3c c5 24 ab bb bd 57 f3 3b a6 12 11 bd
       0.00871185 -0.005222889 0.0074262307 -0.035418175
000340 f4 84 12 3d 91 e5 73 3d b5 4f d9 3c 14 4e 06 bc
       0.035771325 0.059545103 0.026527265 -0.008197326
000350 92 bb f9 bc 96 d1 49 bc a3 f6 53 bc e1 9b a3 bc
       -0.030484948 -0.012318036 -0.012937221 -0.01997179
000360 fc f6 34 3d a3 f4 49 3d 39 8b 37 ba b9 50 81 3c
       0.044180855 0.04930557 -0.0007001642 0.015785562
000370 96 b7 e1 3c 90 f2 0f 3c b4 bb 75 3d f0 ac a9 3c
       0.02755336 0.008785859 0.05999346 0.020712346
000380 7d 1e d0 3c fb a9 e5 3b a3 ac 92 3c f9 af 24 bd
       0.025405163 0.0070087886 0.017904585 -0.040206883
000390 f4 e0 a7 bc 5b 84 e0 3c f3 b1 57 3d b0 bd 01 3d
       -0.020493008 0.027406862 0.05265994 0.03167504
0003a0 93 a0 55 bc c5 ce e3 3c 86 55 cb bb 26 93 d5 bb
       -0.013038772 0.027808556 -0.0062052635 -0.0065177856
0003b0 66 e3 07 3d 63 f0 3a 3c 20 6a ad 3c b3 1f a7 3c
       0.03317585 0.011409852 0.021168768 0.020400858
0003c0 e4 7e 4b bd ec 29 93 bd 34 1c 84 3c 88 b9 9b 3c
       -0.04968156 -0.0718573 0.01612673 0.019009367
0003d0 18 f9 0e 3d 0b e4 b6 3c 84 8f e5 3c 20 a3 06 bd
       0.034905523 0.022325536 0.028022535 -0.032870412
0003e0 e2 71 6b 3b 83 78 0f 3c ca 80 07 3d 22 c6 39 3d
       0.0035926034 0.00875676 0.033081807 0.04535497
0003f0 58 ff fd 3c c2 12 b3 bd 8b 08 cc bd 87 8b 61 bc
       0.031005546 -0.08743812 -0.09962567 -0.013766176

fc1.bias f4 [64]
000000 8a 8c 86 3c 7d 67 b0 3b 1f 66 eb bc 38 fb 5d 3b
       0.016424436 0.0053834305 -0.028735219 0.0033871662
000010 69 70 fe 3b ba 2b 9d b9 79 a4 8c bb 51 e4 5d bc
       0.007764865 -0.00029977952 -0.0042920676 -0.013543204
000020 a6 4d 44 3c 22 3e 81 bb d0 ed 38 3b e9 0b 72 3c
       0.011981403 -0.0039441744 0.002821792 0.014773347
000030 b7 55 71 3b 3d be 3f bc f7 48 4c 3c 09 1a ce 3c
       0.0036824772 -0.011703071 0.012468568 0.025158899
000040 f0 6b 23 bc 1e b4 76 3b cd 5a 24 3d 7b 1d c1 ba
       -0.009974465 0.003764398 0.040125657 -0.0014733517
000050 0a d4 37 3c 52 38 c4 3b d3 37 bc bc c7 99 ae 3c
       0.011219988 0.005988159 -0.022975838 0.021313561
000060 15 04 73 bb cf 86 93 bb 46 41 86 bc fd d6 1b 3d
       -0.003708129 -0.0045021544 -0.016388547 0.038046826
000070 be fc 38 bb 2b 75 a9 3c cc 9b f4 3b 2c 0b be bc
       -0.0028226818 0.020685753 0.0074648615 -0.023198687
000080 67 e2 44 bc 99 c6 48 bc 5f 00 48 bc a3 68 24 bc
       -0.012016869 -0.012254381 -0.01220712 -0.010034713
000090 0f 89 65 bc 18 d5 7f b9 76 66 7d bb de e7 ca 3b
       -0.014009728 -0.00024398079 -0.0038665808 0.0061921915
0000a0 3d 1e 39 3b 39 48 0e 3c d9 05 f5 bb 29 44 c8 bc
       0.0028246783 0.008684211 -0.0074775037 -0.024446564
0000b0 8a c6 a8 bb 2d b0 d8 ba c8 55 18 3b 68 45 88 37
       -0.005150621 -0.0016531997 0.002324449 1.6244783e-05
0000c0 9d 7b 5a bc c8 8e 0e 3c 8b 04 30 3b 5b 08 9a 3c
       -0.013335136 0.008701034 0.0026858177 0.018802812
0000d0 d3 e7 7c bc e7 57 5f bc 50 43 46 3c 2c 9a 2a 3c
       -0.015436131 -0.013631797 0.0121010095 0.010412734
0000e0 fa 7c f1 38 10 85 9f 3b d1 cb 6f 3b 4b d3 9a bc
       0.00011515054 0.004868157 0.003658999 -0.01889958
0000f0 85 5a c4 bb c4 65 fd 3c 1b dc f5 bc 4f 8e 7d bb
       -0.005992236 0.030932315 -0.030012181 -0.003868956

fc2.weight f4 [10, 64]
000000 25 33 25 3e 42 fc 01 3e ff 35 64 bd 4e 96 b6 bd
       0.16132791 0.12693885 -0.055715557 -0.08915387
000010 d1 ef 80 be 47 f9 5e bd 69 69 d6 3b 8d dc 03 3c
       -0.25182965 -0.05443695 0.0065433276 0.008048189
000020 2d f2 9c bd e6 3d a7 3d 4e bf a3 bd 33 ac 2b 3d
       -0.07663379 0.08166103 -0.07995473 0.04191227
000030 40 e6 a4 bd 52 ac 94 bd fb f3 5e 3d c6 bd c3 bd
       -0.08051729 -0.0725943 0.054431897 -0.09557681
000040 99 ad e2 3d a5 58 54 be 42 d7 41 be 20 72 09 3d
       0.110682674 -0.2073694 -0.1892977 0.033556104
000050 d2 37 07 bd bc db 1c 3d 8c 15 11 be 06 1c ba bd
       -0.03301222 0.038295493 -0.14168376 -0.09087376
000060 f7 42 42 be f7 7e 1c 3e 47 a8 82 bd 56 a2 10 3e
       -0.18970858 0.15282808 -0.063797526 0.14124426
000070 f1 01 12 3e f9 02 91 3c 1a c0 6f 3d 70 d3 0c bd
       0.14258553 0.017701613 0.05853281 -0.03438133
000080 6f 5f f3 39 b3 20 fb 3c 7e cc 12 3e 6d 6f 19 bd
       0.00046419675 0.03065524 0.1433582 -0.03745978
000090 e4 59 fd 3d 8c 1e bf bd 4f 9c 37 3d ea 7a ad 3d
       0.12370661 -0.09331998 0.044826802 0.084707096
0000a0 7f ac fc 3d 5d 93 2b be 9b 69 10 be 77 cb 5c bd
       0.123375885 -0.16755433 -0.14102785 -0.053904977
0000b0 0f ee 5a 3d 4e 8f 1a 3e ed 10 01 bd 70 a5 d7 bd
       0.053449687 0.15093729 -0.031510282 -0.105296016
0000c0 8b 91 5f be cf 8e 64 bd a6 7b d7 3b 88 a8 ca 3b
       -0.21832864 -0.055800255 0.0065760193 0.0061846413
0000d0 c8 03 e5 3d da 95 b7 3d 56 05 8f 3d e9 06 11 be
       0.11182362 0.08964129 0.069834396 -0.14162792
0000e0 24 a7 dd 3d 35 8e 17 3e 7d cd 4f 3d 7e 45 17 be
       0.10822895 0.14800341 0.05073308 -0.14772603
0000f0 19 e6 53 bd 1a 62 06 be 2f a0 d1 3d 87 81 85 bd
       -0.05173311 -0.1312336 0.10235631 -0.06518846
000100 bc 53 2e 3e 97 ee 14 be bb 51 b8 3c 52 6b 16 be
       0.1702413 -0.1454414 0.02249991 -0.14689377
000110 70 01 c0 3c b2 d4 dd bd 02 db 77 3c 84 39 5c 3d
       0.023438185 -0.10831584 0.015127899 0.05376579
000120 7e 08 46 38 69 cc 05 bd 06 42 d1 3d 0b 78 4a bd
       4.7214788e-05 -0.032665644 0.10217671 -0.04943089
000130 bf 2b c0 3c 24 04 6c bd 04 e8 1c be d8 c0 e2 3d
       0.02345836 -0.057621136 -0.15322882 0.11071938
000140 47 9f 60 be 1a 55 62 3d 0b a3 d7 3d 69 c9 e3 bd
       -0.2193576 0.05525694 0.10529145 -0.111224
000150 17 c1 7a bd 6f 04 38 3d 6c e8 f4 bd 67 91 18 3e
       -0.0612193 0.044926103 -0.119583935 0.14899217
000160 02 c0 39 bc d7 f1 b5 3d 2a 1a e2 3d 07 1c 97 bc
       -0.011337282 0.08884018 0.11040147 -0.018445982
000170 cf b5 2d 3e 99 a3 08 3e d7 b3 0e 3e c7 ce 50 3d
       0.16963886 0.13343658 0.13935791 0.05097845
000180 08 40 04 be e1 ed ae 3d 37 13 36 3e 6f 35 8c 3d
       -0.12915051 0.085414656 0.17780767 0.06846129
000190 6f a6 c9 3d d9 a3 18 3e 8e ea 04 3c 02 cf 27 be
       0.09846198 0.14906253 0.008112563 -0.16387561
0001a0 b7 39 23 be b9 1a dc 3a ed a1 93 bd 7c 36 bd bd
       -0.15939985 0.0016792632 -0.07208619 -0.09238908
0001b0 bb a8 83 bd fe 39 d4 bd 76 32 d0 bd ca a6 ba bd
       -0.06428667 -0.10362624 -0.10165875 -0.09113844
0001c0 70 0e 48 3c 53 46 c6 bd 07 f4 b4 bc 6b e4 24 3d
       0.012210473 -0.09681382 -0.022089018 0.0402569
0001d0 41 8e c2 3d 24 cd 44 be d7 33 39 3e 37 7b 81 3d
       0.09499789 -0.1921888 0.18086182 0.063223295
0001e0 b3 94 52 3d 38 e8 90 bd fd af 6d be 21 c4 86 bd
       0.051411342 -0.07075542 -0.23211665 -0.06580377
0001f0 48 82 10 3e a7 dc 20 3e 7f e4 6b be bd 8d 53 bd
       0.14112198 0.15709172 -0.23036383 -0.051648844
000200 6a ff f1 bd 68 29 9f 3d e7 de 00 be 4f 48 09 3d
       -0.118162945 0.077715695 -0.1258503 0.033516224
000210 7a 19 18 be 30 22 49 bd f9 3d 73 bc b6 36 18 3e
       -0.14853469 -0.04910487 -0.014846318 0.1486462
000220 c4 58 f1 bd f7 ed d2 bd 88 95 e5 3d cc 27 1c be
       -0.11784509 -0.102992944 0.112101614 -0.15249556
000230 40 79 3c bd 6c 1a ec 3d d3 34 35 3c 44 a4 13 3e
       -0.04601407 0.11528477 0.011059958 0.14418131
000240 fa 39 3e be 1c c9 1f 3e 72 cd 51 bd f1 f0 f2 3b
       -0.18576804 0.15604061 -0.05122132 0.0074139764
000250 4b 5a e9 bd d2 4d c0 bd e4 2a cf 3d 03 0a 3a be
       -0.11394175 -0.09389843 0.101156026 -0.18167882
000260 ac 28 ae 3b 14 21 22 bd d4 e5 ef bd 9e 36 b0 3d
       0.005314907 -0.039582327 -0.11713758 0.086041674
000270 ec 72 03 3e e1 93 88 3d 76 37 81 bd 0a dc 31 bd
       0.12836808 0.06668831 -0.063094065 -0.043422736
000280 b8 ab d9 bd 51 8b 7c bd 33 ca 0f 3e 64 52 a0 bd
       -0.10628456 -0.0616563 0.14041977 -0.07828215
000290 68 9c 2c 3e 2a 61 b2 3d 5c 5a cd 3c 9d 03 a3 3d
       0.16856539 0.08709939 0.0250675 0.079596736
0002a0 3c 15 fc bc 15 30 10 3e 93 f3 23 be 36 a4 e8 3d
       -0.030771844 0.14080842 -0.16010885 0.11359446
0002b0 46 40 4d 3e 71 39 42 be 51 db fa bd 58 83 b8 3c
       0.2004405 -0.18967225 -0.122488625 0.022523567
0002c0 23 12 14 be f8 cb 6a bd aa 0d 95 3d e8 5d a5 bd
       -0.14460044 -0.057323426 0.07277997 -0.08074552
0002d0 ab c4 5d bc a1 88 bc bb 04 89 a6 bd 49 36 23 be
       -0.013535659 -0.005753592 -0.081316024 -0.15938677
0002e0 93 88 00 3e 90 27 1f 3d c0 93 41 3e 88 2d bf 3d
       0.12552099 0.03885609 0.18904018 0.09334856
0002f0 69 5a f1 3d 10 c4 4f be 0b 54 ff bc 28 41 2a 3d
       0.117848225 -0.20289636 -0.031168004 0.041566044
000300 f4 e9 6e be a5 95 8f 3d 73 41 f4 bc b8 b9 07 be
       -0.23331434 0.07010964 -0.029816365 -0.1325444
000310 50 20 e0 3d 90 df 45 bd 65 3a d5 bd 7a 60 a2 3d
       0.10943663 -0.04830891 -0.104115285 0.07928558
000320 ec 90 8e bd 6b 2a a5 bd 79 a0 aa 3d 71 6b 9b 3d
       -0.069612354 -0.08064731 0.08331389 0.07588852
000330 fe b0 26 bc 5d 1f 8a be 9d f8 ff 3c d9 5a 41 be
       -0.010174034 -0.26977053 0.031246478 -0.18882312
000340 fd cc 29 bc fd 75 fb bd 91 69 0c 3e 73 e6 82 bd
       -0.010363814 -0.12278364 0.13712145 -0.06391611
000350 3e 58 03 3d bf 9f 65 3c 03 39 23 be 47 5e 28 be
       0.032066576 0.014015137 -0.15939717 -0.16442214
000360 92 2c 08 3e c3 01 1e be 3d b6 dd 3c dd cf 09 3e
       0.13298252 -0.1543036 0.027064437 0.134582
000370 79 e8 26 3d b2 0a 05 be 65 e0 b8 bc 63 ac f1 bd
       0.040749047 -0.12992361 -0.022567937 -0.11800458
000380 0d aa c1 3d 3c 72 d5 bd ae 62 bd bd 4a 24 6b bd
       0.09456263 -0.10422179 -0.09247337 -0.057407655
000390 18 aa c1 3d 67 fd 06 3e 3e 3a 93 3d f1 94 f8 bc
       0.09456271 0.13182603 0.07188843 -0.030344458
0003a0 80 da 23 3e 6e 5c 86 bc 8a c1 e3 bd ab b0 b3 3c
       0.1600132 -0.016401496 -0.11120899 0.021934828
0003b0 df 9d b5 bc 1d 61 5e 3c d7 ce 1b bd e4 5d 1b 3e
       -0.022170005 0.013572958 -0.038039055 0.15172535
0003c0 1a fd cd 3d 59 ee 30 bd bf 91 03 3d 75 ca 56 3e
       0.10058041 -0.043196056 0.032121416 0.20975669
0003d0 61 af a3 3c 7c 70 a2 3d fa cb 53 be ee a5 4f 3e
       0.019981088 0.07931611 -0.2068328 0.20278141
0003e0 35 19 cb 3b 0c 2b b0 3d 5c 54 d7 bd 54 17 61 3d
       0.0061980733 0.086019605 -0.10514137 0.054953888
0003f0 14 ee 0c bd 30 57 54 be 6e 8f d4 bd 29 83 aa 3d
       -0.034406736 -0.20736384 -0.103789195 0.08325798

fc2.bias f4 [10]
000000 d7 ff 7d 3d 0d 31 f7 3d 94 8b a2 bd 97 84 fe bc
       0.062011566 0.120699026 -0.07936779 -0.031069083
000010 74 57 4f 3d 80 a3 ff 3c d0 b2 d9 3d 63 51 b8 3c
       0.05062051 0.031205893 0.10629809 0.022499746
000020 2e 7a 6b bd 0a 25 65 bc
       -0.057489567 -0.013985882
