models/teacher_model.pth (torch, 903713 bytes, 8 tensors)

conv1.weight f4 [32, 1, 3, 3]
00000000: 3f70 933e cf01 963e d9eb a4bd 81e8 9f3e
00000010: db90 41bd 59f9 b73d f4f7 2fbe 9901 583e
00000020: d32e a63e 93dc 72be 6d8f 983e 8afa 7a3d
00000030: a65a 763e 2a38 873d 1b04 413e 9da9 30bd
00000040: ef01 8e3e af96 b73d e838 34be 820d 7ebc
00000050: c986 60be 547b 8fbd edeb 46be cb09 6d3e
00000060: 9198 8fbe 5ab6 0bbe a8ea 06ba 33fd 75be
00000070: c418 babd ae0f 06bf 0571 b43e 6ffe 59be
00000080: 0c55 9e3e e15f fc3d bd68 103c 2b30 923e
00000090: 63b9 843d 842b 933e 9386 4a3d 6cd7 b0bd
000000a0: 041d f63d aa65 88bd 83bf 2f3e 4caa a83e
000000b0: dbc8 5a3e 25ff 993d c92d c73e e993 ef3d
000000c0: fb35 a63e e64a 6fbe bf8a 27bf 1840 bbbe
000000d0: 18aa ebbe 3f86 b03e 989c 073e 5de5 4d3e
000000e0: db8a 243e 1bbf 2a3d 0e8b 993e 16c8 84be
000000f0: 2e51 8a39 0d18 8ebe e8b7 443c 403b b2bd
00000100: d1f7 f13c 8fc5 7cbe 6713 ab3e 96d6 17be
00000110: 38ae 93be 5c42 f7bd beff d13e c75e 4a3e
00000120: 440e ad3e eeb5 d2be 8650 bbbe c562 46be
00000130: 20c4 25be 596a 553e 94b5 793e 4a37 da3e
00000140: c96a 22bd dc80 5fbe b60c 733e a104 84bd
00000150: 8c00 8e3d bc05 0abd 5581 9b3e 46f5 e2be
00000160: 008a 06be 523b 663e e0a8 0f3e ea20 84bd
00000170: 9f36 e93d 9e51 ad3e 311f 4ebe 339d a1be
00000180: 6068 cb3e 942b e4bd 4758 80be b7b8 bfbe
00000190: f0be 58be b226 0a3e 7270 b5bd 9dfe 94be
000001a0: 5093 83bd 5353 80be 829b a6be 533e 7bbe
000001b0: 2117 84be 8ef8 f9bd dfc1 fb3e ca9e 98bd
000001c0: ff65 9ebd 1cee a7be 8e9a 76be 4db9 77be
000001d0: 8b71 15bd 83b5 a6be e708 2bbe 06db 72be
000001e0: 15d3 cebc 734e 27be f037 9ebd 04c7 70be
000001f0: 2713 87be 5c39 67be f1d1 babe 0cda 8bbe
00000200: 0302 ac3e 56b5 46be a69f a63e 9f7a 2c3e
00000210: 2d39 89be 12ca 913e 783e 4cbd 3218 34be
00000220: 6b51 a4be 997d c8be 17c4 62bd 3e5a 07be
00000230: 0c75 053e 7b80 b1be 4111 953e 5b98 03be
00000240: 0151 35bd 56d0 183e fe2b 943e 340a a93e
00000250: 5fae b93e 3d11 97be e164 0d3e 104e 66be
00000260: b6db 82be 86a0 91be a4c5 903e 4499 92be
00000270: 4cbc 1f3e 2116 213e 072d 1a3e 436c 41be
00000280: d964 ae3e 6b51 0e3e e18a 94bc ae3b 95be
00000290: 691d 933e 9ec1 c0bd 0a8c 5abe 2609 d33e
000002a0: c3a4 d83d 0c38 5abe 1256 a1bd 5efc 193d
000002b0: b835 813e d0bc f8bd 18e1 5bbd 6135 a2bc
000002c0: f873 afbe 5622 733e 238b bf3e 587e bcbe
000002d0: 0427 b63d cf13 553e 8e04 f93d ee8d 86bd
000002e0: c261 693e 2574 723e 5bd7 223e 0caa 04bd
000002f0: c5c9 cebd 0b84 a53d 8abc a2bd ff04 33be
00000300: 36f7 803e 54a8 9f3e 356c cfbc dbd7 9abd
00000310: a277 dd3c 6aab dc3c 8170 343e 446f 403e
00000320: c80e 33be 0cf7 88bd fd4c ab3e 990d 533e
00000330: f7c4 11be ad81 abbe dae2 90be 3707 9fbe
00000340: c93f 7fbe af04 c23c ba36 743e 681a 1b3e
00000350: d478 83be 0349 22be 85ec 0d3c b1d5 cb3e
00000360: ed7b 273e ef8b de3d 6647 a63e fd54 e0bd
00000370: 9741 2dbd 4197 d93e c1b5 adbe facf bbbe
00000380: 2ffa f6be c793 553e f5a8 683e 2a71 ab3d
00000390: bb28 85be 0084 c9be 789a b4be e089 8d3e
000003a0: 4df3 3c3e 8aa4 993e ed48 853e 2585 843e
000003b0: 5175 173e b8c7 c5be aa30 86be f1e8 b0be
000003c0: 5bcf 8b3d d1d5 1bbe 5218 1fbd f267 86be
000003d0: abed fcbd 5b6b 87be 2c3c 66be c23d a2bc
000003e0: 1b6b 51be dbb7 ab3e b336 8abd 0e41 96be
000003f0: c04b c4bd 01e1 a4be 48dd 15be 3b64 8bbe
0.28796574 0.29298255 -0.08052797 0.31232074 -0.047257286 0.08983106 -0.1718443 0.2109436
0.324576 -0.23716955 0.29796925 0.06127409 0.24058017 0.06602509 0.18849222 -0.043130506
0.2773585 0.089642875 -0.17599833 -0.01550615 -0.21926416 -0.07005945 -0.19425936 0.23148267
-0.28046086 -0.1364378 -0.0005146661 -0.24022369 -0.09086755 -0.52367675 0.35242477 -0.21288465
0.3092426 0.12322975 0.008814034 0.28552374 0.06480672 0.28744137 0.049444746 -0.086348385
0.12017253 -0.06660016 0.171629 0.32942426 0.21365683 0.07519368 0.3890212 0.116981335
0.3246306 -0.23368415 -0.65446085 -0.36572337 -0.4602821 0.34477422 0.1324333 0.20107026
0.16068594 0.04168616 0.29988903 -0.25933903 0.00026381895 -0.27752724 0.012006737 -0.08702707
0.029537113 -0.24684738 0.3341324 -0.14827952 -0.28843856 -0.12073204 0.41015428 0.19762717
0.33799946 -0.41154426 -0.36584872 -0.19373615 -0.16188097 0.2084135 0.24385673 0.42620307
-0.03965262 -0.218265 0.23735318 -0.064461954 0.06933698 -0.033696875 0.3037211 -0.44327754
-0.1313858 0.22483566 0.14029264 -0.0645159 0.11387371 0.3385133 -0.20129086 -0.31565246
0.3972807 -0.11141124 -0.2506735 -0.37445614 -0.21166587 0.13491324 -0.08859338 -0.29100505
-0.06424582 -0.2506357 -0.32540518 -0.24535494 -0.25798896 -0.12205611 0.4917135 -0.074521616
-0.07734298 -0.3279885 -0.24082395 -0.2419178 -0.036485236 -0.32560357 -0.16702615 -0.23716363
-0.025247136 -0.1633852 -0.07725513 -0.23513418 -0.263818 -0.22580475 -0.36488298 -0.27314794
0.33595285 -0.19405112 0.32543677 0.16843651 -0.26801434 0.2847448 -0.049864262 -0.17587355
-0.32093367 -0.39158323 -0.055362787 -0.13218018 0.13032931 -0.34668335 0.29114726 -0.12851088
-0.044266704 0.14923224 0.28939813 0.33015597 0.36265847 -0.2950534 0.13808013 -0.22490716
-0.2555825 -0.28442782 0.28275788 -0.28632557 0.15599173 0.15731098 0.15056239 -0.18888955
0.34061316 0.13898246 -0.018132629 -0.29147094 0.28733376 -0.094119295 -0.21342483 0.41217917
0.10578301 -0.21310443 -0.07877745 0.03759419 0.25236297 -0.12145388 -0.053681463 -0.019800844
-0.34268165 0.23743567 0.3741084 -0.36815143 0.088941604 0.20808338 0.12159072 -0.0657004
0.22791198 0.23677118 0.15902464 -0.03238873 -0.10097078 0.08081826 -0.07946117 -0.17482375
0.25188607 0.31183112 -0.025320152 -0.075607024 0.027034584 0.026937205 0.17621042 0.18792444
-0.17486107 -0.066877455 0.33457175 0.20610656 -0.14235292 -0.33497372 -0.28298074 -0.31060192
-0.24926676 0.023683874 0.23849002 0.15146792 -0.25678122 -0.15848164 0.008662348 0.3981147
0.16355868 0.10866534 0.32476348 -0.1095371 -0.04229888 0.4249821 -0.3392773 -0.3668211
-0.4823775 0.20857154 0.22720702 0.08371194 -0.26007637 -0.3935852 -0.352741 0.27644253
0.18452187 0.30008346 0.260322 0.2588283 0.14790846 -0.38628936 -0.26209003 -0.3455272
0.06826659 -0.15218283 -0.038841553 -0.2625118 -0.12350019 -0.26449093 -0.22483891 -0.019804839
-0.20451014 0.33538708 -0.06748714 -0.29346508 -0.09584761 -0.32202914 -0.14635193 -0.27224907

conv1.bias f4 [32]
00000000: 67ab 903e fb3b 66bd 5551 b7bc 7a30 aabd
00000010: d45d 9cbe c7c1 28be c0a4 063e 3033 21be
00000020: 7b09 06be 9fa3 c5bc d73c adbd eb30 80bd
00000030: 04f9 413c 86e6 16bd 7723 a9bd e083 ecbd
00000040: 1a8a 69be 323e 453e 307e 55bd c4e6 573d
00000050: acdd afbd f008 7b3d fb34 823e ad1d bf3d
00000060: 1144 1dbe 211a df3d 8619 9f3e 9d31 c73d
00000070: 6152 4d3e 0929 823e 467f a3bd 470c ab3d
0.2825577 -0.056209546 -0.02237765 -0.083100274 -0.30540335 -0.1648017 0.13148785 -0.15742183
-0.13089554 -0.024125872 -0.0845887 -0.0625933 0.011839155 -0.036840938 -0.082587175 -0.11548591
-0.22806588 0.19262007 -0.052122295 0.05271031 -0.085872024 0.06128782 0.25431046 0.09331832
-0.15357997 0.108936556 0.3107416 0.0972626 0.20050956 0.25421932 -0.0798326 0.08351951

conv2.weight f4 [64, 32, 3, 3]
00000000: e24f 64bc ec31 bebb 18e6 6e3d a49d 743d
00000010: 055a 4ebc ae16 65bd a2dd bcbd 3b45 ecbd
00000020: 2fd9 c8bd 3673 0bbb f95e 893d 7351 7d3d
00000030: bfb2 24bd ac93 ecbc 8dab 16bc c88d dbbd
00000040: 1774 b6bd 07f7 a63b bf27 06bd 8ec6 0bbc
00000050: 2ec8 85bc 3440 debc 5f73 39bd 4b6e 11bd
00000060: ba1a 18bd b3c2 1e3b 0913 c43d 25f0 553d
00000070: bc9b 023d 0ade 393d 9a92 513d 9d31 0b3d
00000080: 63bd 89bd 3e79 de3d 276d 24bb 9711 413d
00000090: 4468 5e3d fb3f 943c fa3e 22bc 208b 1b3d
000000a0: 338a 5dbd 4c12 c5bd 5fae d1bd c7b1 99bd
000000b0: 5849 9b39 786f 983c 7f54 9c3d 9e0c 633d
000000c0: 5f24 47bc cc0f 143e c5ee 8e3e 50db a33c
000000d0: ff72 823c afdf 03bd 4454 7fbd 1e6f 12bd
000000e0: 53e1 873d 8da1 933d b32a df3d 088d e43a
000000f0: b4a1 b1bb 0f77 aabd c956 90bd a2e1 163e
00000100: 3548 1a3c 67c1 41bd 7407 4abd 6261 8bbd
00000110: 2da5 debd c30b 323d b845 e4bc fe0a 57bd
00000120: c5d4 003e a5af f43d fcbf e139 d8a3 20bd
00000130: acc8 b7bd fff2 c0bc d2e3 bb3d 5b98 203c
00000140: eb4a 393b 61c2 343c 7df6 8fbc 92b1 cabc
00000150: 4c49 2c3d e0a3 24bd 7f94 10be ee7b c0bd
00000160: c560 78bd ef68 97bc a11d bb3c ae51 81bd
00000170: 9597 2b3d 7618 713c a3f8 f53c 7b6f 16bc
00000180: 86cb cdbd 2f18 89bd 67ca 18be 9047 3cbd
00000190: bf33 34bd 2505 83bd b676 47bd 2e98 c43c
000001a0: aee5 493d b23d 443d ea91 273c fbc1 81bd
000001b0: 4a41 0abd ec6c 17bd 1c5f a1ba b90f 663c
000001c0: d09b 2f3b 9fdd f43c 3a9a 533c 980d d23c
000001d0: ea91 e6bd b283 1bbc 08e0 3ebd 01cc 20bd
000001e0: d37e 20bd 9135 673c 3105 b73c adae a43d
000001f0: fe2a a53d 149f 76bc 6776 81bd f37c bf3d
00000200: 4ddd 013e 43a2 75bd 263a 15bb 97d7 d6bd
00000210: adb8 1ebe 82dd aebd d59a 593c 771f 76bc
00000220: 3322 d7bc 9bbf 1a3d 2e2e 96bc 08ce 8dbd
00000230: ce98 da3c 66a7 233d 809c 433d 1640 d0bb
00000240: 20c0 163c 1de3 b9bc 47da 1d3d 4abc b6bc
00000250: 5378 ea3d 1f26 023e 5c6e 2cbd 3672 4abd
00000260: 35a6 32bd 4e0c b73c 14e7 79ba c51d 7e3d
00000270: 905d a3bc 615b 37bd 02e9 bdbd dfd9 a8bc
00000280: bac8 c1bc b6f6 02bd 0beb debc 87ac 293c
00000290: 0d9e 24bd f91c 7d3c 1545 923c ed45 01be
000002a0: 6929 8bbd 9aa6 d1bc 091e a3bd 99e7 093d
000002b0: 2c43 b1bc ecf8 3bbd d449 1bbd 9a7b 753b
000002c0: 1033 553d cdb0 943d 0c81 b3bb f5e4 7dbd
000002d0: e114 16bd 9250 6bbc d1bc 8f3d e2fa 933d
000002e0: 53b5 a23d cfcf 6a3c 5886 e4bd 9871 e7bd
000002f0: 1e6a 96bd 62a4 873c f552 8c3c 1a25 f3bc
00000300: ec89 933d 6418 3ebc e5e2 81bd 8f89 bdbd
00000310: 0f44 02bd 9444 eebd 0bd5 553b bce8 ccbc
00000320: 3602 953c 6178 e23d 2ffd 673d 7957 683d
00000330: 03ce 873b 1c37 54bd d299 e4bc 5d0c 0d3d
00000340: 440e be3c d16d dfba e049 c739 b01e 4abd
00000350: 0695 d0bd 43c3 ae3d f1ce 723d d495 883c
00000360: 6dc7 4cbd 2193 83bc f06e 713b aab5 703e
00000370: eaa9 9e3d 975f af3b ce46 973d 585b adbb
00000380: 7fe4 c3bd 05e0 6e3d 548b 923d e546 343d
00000390: 1a6e 953d 2956 9e3c acb0 1f3d 5ab2 843d
000003a0: ffa4 21bc 96eb 3bbc 9bf5 cdbc f234 5dbd
000003b0: 7b9f 263c b099 8c3d 48c7 b93d 8622 143e
000003c0: 9660 b23d 1fa9 dc3d d189 873b 1e83 2cbb
000003d0: a4a5 29bd f308 d1bd 6d19 98bd 241b 13bd
000003e0: e5e9 cdbc 9a94 863c 6e8b 973c adc9 04bd
000003f0: 9478 af3c 7004 b33d 1127 913d 1d0c 4abd
-0.013935061 -0.005804291 0.058324903 0.05972065 -0.0125947045 -0.055929832 -0.092219606 -0.11536642
-0.098070495 -0.0021278388 0.06707568 0.061845254 -0.040209528 -0.02887901 -0.009196174 -0.10720402
-0.08908861 0.005095366 -0.03275275 -0.008531226 -0.016330805 -0.027130224 -0.045276042 -0.035505574
-0.037134863 0.0024224936 0.09573943 0.052230973 0.0318868 0.04537777 0.0511652 0.03398286
-0.06725576 0.10862969 -0.0025089474 0.047135916 0.054298654 0.018096915 -0.00990271 0.037974477
-0.054086875 -0.096226305 -0.10238337 -0.075046115 0.0002961855 0.01860784 0.07633304 0.055431955
-0.012154668 0.14459151 0.27916542 0.020002037 0.015923975 -0.032195743 -0.06233622 -0.0357505
0.06634774 0.07208548 0.10896816 0.001743705 -0.005420888 -0.0832349 -0.07047803 0.1473451
0.00941663 -0.047303583 -0.049323514 -0.06805684 -0.108713485 0.043468248 -0.027865276 -0.052500717
0.12581165 0.11947564 0.00043058384 -0.039218754 -0.08973822 -0.02355337 0.09174313 0.009801949
0.0028273414 0.011032672 -0.01757359 -0.024742875 0.04206209 -0.040195346 -0.14119147 -0.09398638
-0.06063916 -0.018482653 0.022841277 -0.06314407 0.041892607 0.014715305 0.030025786 -0.009181852
-0.10048585 -0.06694066 -0.1492096 -0.045966685 -0.04399466 -0.063974656 -0.048697196 0.023998346
0.049291305 0.0479104 0.01022766 -0.06335827 -0.03375367 -0.03696911 -0.001231167 0.0140418345
0.0026795752 0.029890833 0.012915188 0.025641248 -0.112583 -0.009491848 -0.04660037 -0.039257053
-0.03918345 0.014111892 0.022341343 0.08041129 0.08064841 -0.015052576 -0.063214116 0.09350004
0.12682076 -0.059969198 -0.0022770255 -0.10490339 -0.15500136 -0.08538343 0.013281544 -0.01502215
-0.026261425 0.037780385 -0.018332567 -0.06924063 0.026684191 0.039954565 0.047756672 -0.006355296
0.00920108 -0.022691304 0.038538244 -0.02230658 0.11448731 0.12709855 -0.042097434 -0.049425326
-0.04361554 0.022344735 -0.00095330295 0.06204011 -0.019942075 -0.04476488 -0.09272958 -0.020611702
-0.023655284 -0.031973563 -0.027211687 0.010356075 -0.04018979 0.015448802 0.017855207 -0.12624331
-0.06795008 -0.025592137 -0.07964713 0.033668134 -0.021638475 -0.045891687 -0.037912205 0.0037457705
0.05205065 0.072602846 -0.00547803 -0.06198593 -0.036641005 -0.014362471 0.07018436 0.072255865
0.07944741 0.014331772 -0.111584365 -0.11300963 -0.07344459 0.016557876 0.0171294 -0.029680777
0.07204041 -0.011602495 -0.06342105 -0.09254753 -0.031803187 -0.11634174 0.0032628204 -0.02501332
0.01818953 0.11058117 0.05663794 0.056724045 0.0041444316 -0.05181037 -0.027905378 0.03443562
0.023200162 -0.0017046278 0.0003801128 -0.049345672 -0.10184674 0.08533337 0.059279386 0.016673006
-0.049994875 -0.016061367 0.0036839806 0.235068 0.07747252 0.0053519714 0.07386552 -0.00529043
-0.095650665 0.05831911 0.07155481 0.044012923 0.07296391 0.019328194 0.038986847 0.0647933
-0.009865998 -0.011469742 -0.025141528 -0.05400557 0.010169859 0.06865251 0.09071213 0.14466295
0.087098286 0.10774445 0.004136302 -0.002632327 -0.041417733 -0.10206785 -0.074267246 -0.035914555
-0.025135944 0.01642828 0.018499102 -0.032418896 0.0214198 0.08741081 0.070875295 -0.04932796

conv2.bias f4 [64]
00000000: 3aea 69bd 841b 9bbc f272 f83c 184c 1ebd
00000010: ce06 22bd 5e6a 133c 9f44 20bd 2db9 383a
00000020: 21ca 63bd 9975 173c 66f9 2e3d 4dfe 453b
00000030: dca5 1b3d 24a2 98bd 14df 28bd bfcb 05bd
00000040: e2eb 603d 4699 a3bd 5dae 84bc 1d15 55bd
00000050: 21d1 803c ae9b 81bd 6b2d 6cbd 81d6 34bd
00000060: 37b2 22bd 7060 1f3d 2e27 3c3c c152 6bbd
00000070: 4d8b 3b3d e9b0 4e3b dcd5 b0bc 3628 0abd
00000080: 3a0e e7bc 66bd 67bd a058 4bbd 2237 1ebd
00000090: c799 a53c 645c 7abc 2706 31bd b50a a0bb
000000a0: 6f6a cdbc 8b6a 3fbd bc6b 353d 2563 81bd
000000b0: fb29 70bd c9a1 973c 65cb be3c dba3 44bd
000000c0: 9e83 0f3d 310d 23bd 60ba fbbc fd3d 74bc
000000d0: e206 27bd 08f7 123d 7e0b 7abd 778f 2b3c
000000e0: 680d 103d 1c75 0cbd e756 69bd 303e 683c
000000f0: 4cee 94bb 6ab2 50bd 7cde 6b3d 0c81 243d
-0.05710814 -0.018934019 0.030328248 -0.038646787 -0.03955727 0.008997528 -0.039127942 0.00070466363
-0.055612687 0.009244346 0.042718314 0.003021139 0.037999973 -0.07452801 -0.04122837 -0.03266501
0.054912455 -0.07988219 -0.016196424 -0.05202209 0.01572472 -0.06328522 -0.0576605 -0.04414988
-0.03972074 0.03891033 0.011483951 -0.057451967 0.045787144 0.0031538552 -0.021586351 -0.033729754
-0.028205026 -0.05657711 -0.049645066 -0.038626797 0.020214928 -0.015280817 -0.043218758 -0.004884089
-0.025075166 -0.046732467 0.044292197 -0.063177384 -0.058633786 0.018509762 0.023290345 -0.048007827
0.03503763 -0.039807502 -0.030728519 -0.014907357 -0.04077805 0.03588012 -0.061046116 0.010471216
0.035169035 -0.03429137 -0.056967642 0.014174983 -0.0045450088 -0.0509514 0.057585225 0.04016213

fc1.weight f4 [128, 1600]
00000000: a32f 7e3c ec6b 563d fdde 383b 5c41 f43c
00000010: 91a0 283d 5561 b63c 184b 39bb 8f38 a93c
00000020: 1ccc 503d 5019 8b3c c420 083d b798 ffbc
00000030: a56f 013d 3a9b 6a3d 224a ec3c 2e2f 5dbc
00000040: be47 acba 3093 95bb 552f f3bb 3ec3 efbc
00000050: 62b5 5ebd 077b 633c ec41 a23c b357 04bd
00000060: 5d79 e2bc 80f8 02bc e598 3dbc 55e1 3a3b
00000070: e55e 62bb fb97 543c f666 c03c c1f2 383d
00000080: 57c5 953d 129c e13c 10ef 2a3d 6bdc cb3c
00000090: 8f42 493b 91ac db3c bc31 97bc 53df cebc
000000a0: 00f6 d3bb 14bb 67bc 17ab dfbc 0f11 4c3d
000000b0: 36e7 373d 796c ee3c efc1 9a3c 1389 d2bb
000000c0: a2d6 25bc 89fa 31bd b9a2 4b3c 9f05 0e3d
000000d0: 8263 073c 5ec1 203c 2066 d33c 458f 863b
000000e0: 90e1 68ba 274d e7bc 9ac5 653d a91c eb3c
000000f0: cfa9 c7bc bef6 8bbc 3211 083d 0709 653d
00000100: 6f9c 283d 1758 193d 5698 273d 2097 db3c
00000110: d156 f73b 52ae 3dba e201 01bd 6672 4b3c
00000120: 1bf6 a23d e20e 713d baf5 b63c 0c4c 0f3d
00000130: 22bc 8d3b 9f1c 6ebd 053b 75bd 18ea 79bd
00000140: 4cf0 d13c bf25 da3c c4b4 99bc 4725 11bd
00000150: 3424 b8bc e23d 37bd 2aee b8bc 22ce 003b
00000160: a6b8 a6bc 12f2 80bd 314a 2a3d 14c3 423d
00000170: 7df0 59bc 2e59 9dbc 20da 51bd bde2 0e3c
00000180: e85c e3bb 876c c4bc b052 02bd bcd6 60bc
00000190: 4643 dd3c 589c 963c 8be6 ba3b 8aef 2e3c
000001a0: a453 09bd fa0d 0c3d 5221 13bb b877 9a3c
000001b0: b5eb 72bc 541c 96bb 32ee 943c cb59 9bbc
000001c0: 785c 84bc 15b1 08bb ff0c dcba 9d09 1f3b
000001d0: e081 34bc 55b7 f73c 5da2 d63c 8e53 91bc
000001e0: cf46 953c 21a6 2d3d a1b0 32bc aa6d 58bc
000001f0: a920 95bc a5f7 b73c d8a8 a13a 4ccb 4d3c
00000200: 6ac9 54bd 0e99 26bc 55db 1f3d aabe 1c3d
00000210: f8b1 0fbd 6c7b 00be af95 e6bc ffd1 3bbc
00000220: c6eb 013c ad50 afb9 284e cfbd 36d9 0abd
00000230: cb0b 673c 894b 0f3d 987b 09bd e839 34bd
00000240: 0f5b 84bb 2ef3 d23c dc13 fe3c e46b 76bd
00000250: f9eb 07bd 5bc7 4f3d e5a7 8cbc f570 27bc
00000260: 74ca c5bc 2818 a1bc 35de 2dbc 4be4 a0bc
00000270: dae0 c4bc 05b2 523d c41f db3c 02d4 283d
00000280: 5651 e3bc 47c0 4b3d ed62 fd3c 64b8 053b
00000290: 25ec bcbc a836 8b3b 8991 e3bc cf28 243d
000002a0: 307b a33c 66d3 133d f2cd 3e3d f683 123d
000002b0: 24fb 633d 5c60 e0bb e2c9 cf3c ba55 ab3a
000002c0: 3098 5b3d b105 6a3d fb70 0a3d 8545 4a3d
000002d0: 1605 093d 314d 553d b5ac 283d 1036 f13c
000002e0: 7dfd b03d 0c87 4d3d 4e3c e93c 8611 51bc
000002f0: 8ef1 f3ba b2f2 6a3b b84e b53c b031 a8bc
00000300: 2b20 2ebd 8d1b b1bc 7086 8739 5131 adbc
00000310: dd79 bd3b 5c0f 733c e005 8e3d 4548 90bc
00000320: 8b07 1cbd dc40 b8bd 9948 9fbd 502a 973a
00000330: 5458 cd3c 964d 06bd 1c9b 4abd 32c7 83bc
00000340: 7465 17bd 0f44 cebc a6d2 0bbc 724e 983c
00000350: bd3a 703d 66ca d53c cc58 90bc c75d 41bd
00000360: 3a5d 41bd 7b18 1e3d ea71 0d3d 14fd 313d
00000370: e84c 1dbd 8dae 8e3c f6fb 403c 4cf7 26bc
00000380: acdf cc3c bbfb 953c 85e3 3d3c b589 403c
00000390: 6a64 d63b f515 35bb 681a ef3c 86ba 8c3c
000003a0: c940 a3bc 103e 0bbd f7e8 153d 9b9f 053d
000003b0: 0446 05bd 35b6 a03c 49d5 19bc 4ed4 be3c
000003c0: c1f8 34b8 fcbe c63b 4791 c6bb ca44 c6bc
000003d0: 89e7 8abc cd0a c83b 7cee e03b 8e68 c03c
000003e0: 70c2 f63c 383c 39bc fd0f 8b3b 13bb c33c
000003f0: 40b9 4ebb be27 c03c 259b 1a3d ed8a 113d
0.015514287 0.052349016 0.0028209083 0.029816322 0.041168753 0.022263208 -0.002827352 0.020656852
0.050975904 0.016979843 0.033234373 -0.03120075 0.031600613 0.05727694 0.028843943 -0.013500018
-0.001314394 -0.0045646653 -0.007421414 -0.029267903 -0.0543722 0.0138843125 0.019806825 -0.0323102
-0.027645761 -0.007993817 -0.011572097 0.0028515656 -0.0034541425 0.012975688 0.023486596 0.045153383
0.0731303 0.02754024 0.041731894 0.024885377 0.0030709838 0.026815685 -0.018456332 -0.025252974
-0.0064685345 -0.014143724 -0.027303262 0.049820956 0.044898234 0.029104458 0.018891303 -0.006425032
-0.010121973 -0.04345182 0.012428933 0.03467333 0.008263471 0.009811727 0.025805533 0.0041064345
-0.0008883709 -0.028235031 0.05609665 0.02870019 -0.024372963 -0.01708543 0.033219524 0.055916812
0.04116481 0.037437525 0.040916763 0.02680546 0.007548191 -0.00072357536 -0.031495936 0.012417411
0.07957097 0.058852084 0.022333968 0.034984633 0.0043254057 -0.058132764 -0.05987074 -0.061014265
0.025627278 0.026629327 -0.018762954 -0.03543594 -0.0224782 -0.04473675 -0.022574503 0.0019654115
-0.02035172 -0.06296171 0.04157466 0.047549322 -0.013301966 -0.019207563 -0.05123341 0.008721051
-0.0069385655 -0.023977531 -0.03181714 -0.013723072 0.027009618 0.018385097 0.0057037524 0.010677228
-0.03352703 0.034193017 -0.002245028 0.018855914 -0.014826705 -0.0045810137 0.018179987 -0.018963715
-0.016157374 -0.0020857502 -0.0016788541 0.0024267205 -0.011017293 0.030238787 0.026200468 -0.017740037
0.01822224 0.04239476 -0.010906369 -0.01320974 -0.01820405 0.022456953 0.0012333645 0.012560677
-0.051949896 -0.010168327 0.03902753 0.03826777 -0.035081834 -0.12547082 -0.028147547 -0.011463641
0.007929748 -0.0003343871 -0.10122329 -0.033898555 0.014101933 0.034984145 -0.033565134 -0.044000536
-0.0040391753 0.025750723 0.031015329 -0.060161486 -0.033184025 0.05072723 -0.017169902 -0.010219802
-0.024144389 -0.019664839 -0.01061206 -0.019640109 -0.024032999 0.051439304 0.026748545 0.04121781
-0.027748745 0.049743917 0.03093096 0.0020404095 -0.023061821 0.004248459 -0.027779358 0.04007798
0.019956201 0.036090277 0.046583124 0.03577038 0.05565943 -0.0068474244 0.02536482 0.0013071813
0.053611934 0.057134334 0.033799153 0.049382705 0.033452116 0.05207557 0.04118033 0.029444724
0.08642099 0.05017762 0.028471138 -0.012760526 -0.0018611418 0.0035850224 0.022132263 -0.020531505
-0.042511147 -0.021619583 0.0002584937 -0.02114168 0.0057823495 0.014835205 0.06934714 -0.017612586
-0.03809313 -0.08996746 -0.07777519 0.0011532996 0.025066532 -0.032788835 -0.04946433 -0.016086195
-0.036961988 -0.025178937 -0.008534109 0.018592093 0.058649767 0.026097488 -0.017620467 -0.047208574
-0.04720805 0.038597565 0.034532465 0.043454245 -0.03840342 0.017417217 0.011778822 -0.010190796
0.025008999 0.018308511 0.011589889 0.011751582 0.006542732 -0.0027631496 0.029187396 0.017178785
-0.019928353 -0.033994734 0.036599126 0.032622915 -0.032537475 0.019618133 -0.00938923 0.023294594
-4.3147014e-05 0.0060652476 -0.006059799 -0.024202723 -0.016956108 0.006104803 0.006864367 0.023487356
0.030122012 -0.011305861 0.0042438493 0.023892915 -0.0031543523 0.02345645 0.037745614 0.03553288

fc1.bias f4 [128]
00000000: 98f7 c43c ae65 b63b 7384 a73c a992 493b
00000010: 2462 293c b7a0 4bbc 3b42 2bbc 3185 4b3c
00000020: c3e7 ee3c 37d2 5cbc aa50 7439 5b6e b3bc
00000030: ef18 aaba 57c2 703c d3ce 8f3c d825 c9bc
00000040: b32e cd3c 01a0 f6bc 0390 fd3a 9f28 5d3c
00000050: c828 83bc a488 593c f1dd d23c 1d9e 3cbb
00000060: 281a b7bb 499b 46bc 73cf ad3c 1c4f 90bc
00000070: 4d36 5f3a e119 eb3b c3ff 5dbb f72c a4bc
00000080: 0297 a8bb 304c 10bc 26d4 903c 5ef8 e1b9
00000090: 071e a43c eca0 d43c 4e00 dd3c f70f c7bc
000000a0: 1248 8a3c c4a0 be3c c002 163c 7679 14bc
000000b0: a10a 173c 42d1 0abc 3de4 81bc 2ab2 95bc
000000c0: 04d8 40bc 253a 7abc 17c9 a7bb 7fa6 ef3c
000000d0: a102 293b 3492 b0bb 9261 933a 949b e23c
000000e0: 71bc 723c 24c5 a03c ceb9 a03b 0323 913b
000000f0: 5732 2f3d f94b de3a e094 33bc 3497 f43c
00000100: 2ef8 40bb abb9 0ebc d33c 83bc 495e 24bb
00000110: c0ad 973c 402e 8f3c f60a 0fbc f228 073d
00000120: 352e f9bc a284 f43c 43c3 943c 0dc1 e63c
00000130: bea3 c1bc 5f6b 933b 2cd2 ce3b 1b99 fbbb
00000140: 4ab5 b93c 8bcd 2fbc dae9 aa3c ee5e 38bc
00000150: 3b0c 883c a64c 193c 91c1 2e3d ab49 c53b
00000160: b59c 9abc 35a4 fbbc b84c 5cbb 79bd 913c
00000170: 86ce 44bc afef f43b c097 ed3c d722 d03b
00000180: c3e7 3a3c 58c9 1abc 644c 103d 8653 9b3c
00000190: db50 093c 4a6e 4cbc 04f1 213b 4d7b 9c3a
000001a0: 1e0b 773b 44d7 f3bc 968f d7bc f671 113d
000001b0: 8c3b 8c3c d595 d23c 1092 b83c 7a2c 663c
000001c0: 02fd e03c 5a0e 833c f23d b739 2838 f0bc
000001d0: 0640 f0bb ef1c 2039 cdee 33ba 8c00 24bc
000001e0: 9083 35bc 80e2 7fbc 087e 2a3a cfe0 063d
000001f0: 54da 00bb 7aca ba3c d07b 4a3b 5570 2dbb
0.024043843 0.0055663204 0.020448899 0.0030757582 0.01033834 -0.012428454 -0.010452802 0.012421892
0.029163247 -0.0134778535 0.00023299703 -0.021903208 -0.0012977401 0.014694772 0.017554676 -0.024554178
0.025046682 -0.030105593 0.0019345287 0.013498454 -0.016010657 0.013277207 0.025740596 -0.0028780766
-0.005587835 -0.012121984 0.021217084 -0.017615847 0.00085148663 0.007174716 -0.003387437 -0.020040972
-0.0051449547 -0.008807227 0.017679285 -0.00043100392 0.02003385 0.02595564 0.026977684 -0.024299605
0.016880069 0.023270018 0.009155929 -0.009062162 0.009218843 -0.0084727425 -0.015855903 -0.018273432
-0.011770252 -0.015272652 -0.0051204073 0.029254196 0.002578892 -0.0053885225 0.0011244288 0.027662076
0.014815436 0.019625254 0.004904962 0.0044292226 0.042772617 0.0016959897 -0.010960788 0.029857256
-0.0029444802 -0.008711259 -0.016020214 -0.0025080612 0.018515468 0.017478108 -0.008730641 0.032998033
-0.030417541 0.0298484 0.018159514 0.028168226 -0.023637649 0.0044988836 0.0063116755 -0.0076781637
0.022669453 -0.010730158 0.020863462 -0.011253102 0.016607394 0.009356653 0.042665068 0.006020745
-0.018873552 -0.030717948 -0.0033615064 0.017790543 -0.01201213 0.0074748616 0.029003024 0.0063518095
0.011407795 -0.009447418 0.0352291 0.018960726 0.008381094 -0.012477467 0.0024710307 0.0011938602
0.0037695835 -0.029765733 -0.026313584 0.035509072 0.017118238 0.025706211 0.022530586 0.01404869
0.027464394 0.015998054 0.00034950633 -0.029323652 -0.007331851 0.00015269568 -0.0006863892 -0.010009896
-0.01107873 -0.015617967 0.00065037655 0.032929238 -0.0019661384 0.022801626 0.0030896552 -0.002646466

fc2.weight f4 [10, 128]
00000000: e979 bdbb 2ca5 9abd d24c 193d 5c2c 0abd
00000010: 66b0 103d ac16 293d 2554 70bd 93ab 823d
00000020: 7b6d b0bd e5a2 2c3d 8b51 263d 2ee9 753c
00000030: 1779 4dbd a835 6bbd 79de ff3d 9d85 6cbd
00000040: 5358 3dbd f1b4 9cbd cae4 4ebd 2eda 92bd
00000050: 14e7 05be 1ab8 df3d 8434 783d 2f00 cb3c
00000060: f87e e6bd bb0c 343d ad84 aebd 589b c83c
00000070: f60d d53c 206f 513d 9a74 3e3d 68d5 b03d
00000080: 0458 9b3c a756 98bd 290f 12bc 8801 493d
00000090: e126 8abc b2d2 e1bd a1eb 92bd f9cb 513d
000000a0: bb7d 803c d379 643d 34e5 dcbc 8104 6bbd
000000b0: 61b4 843d b422 b2bd 62b8 573d 1f89 7e3b
000000c0: 43af 92bd e5de da3c 8d8f 95bd f5b5 413d
000000d0: 57e6 973d 61ec 76bd 69df b1bd 6d50 1f3d
000000e0: 6253 b23c 3323 1cbd 735f 803d c06f 56bd
000000f0: 420a f63d 015c 953d 4536 6abd f060 09bd
00000100: 5790 10be 848e ab3d bb53 8f3d 4808 c0bd
00000110: 0b6a df3d 2787 993c 28ea babc ca28 e13c
00000120: 6465 8e3b a804 aa3d be2a 0bbd 1269 cebd
00000130: 1241 223d cc9d 7fbd 5126 153d f862 59bd
00000140: d14d e4bd 77be cabc 7f36 a03d f96c 00be
00000150: 3532 163d 365e 533d 98e8 44bc ab6e a7bd
00000160: 4d6b b73d cc9c 903d b8cd aebd f690 22bd
00000170: b596 273d c3aa aebd dde0 02be 395f 24bd
00000180: fd7c d13d 0363 0f3d c809 b4bd 30dc 2c3d
00000190: 1603 3d3d b3a7 adb8 b38c 30bd c538 873d
000001a0: 5b9c 393d 7896 9e3d b7ee f4bc 55b2 173d
000001b0: c283 55bd 2a5e af3b f65c 1fbd f37e 1cbd
000001c0: 3d7f ae3d 6ec3 98bd b60c 83bd b2ff 92bd
000001d0: 0875 39bd 33ab 933d d769 993d 88ee 4c3c
000001e0: 8d76 82bd 7a68 9fbd 8a6d 31bc fdaf dbbd
000001f0: b7b8 203d c65a acbd 43a5 993d a653 b6bc
00000200: 4c92 73bd a9c7 d0bd bba9 0d3d 7afa e5bc
00000210: 238e 3e3d bac2 ccbd 550f 753d 880c 243d
00000220: 3184 a13c 9022 cbbc c369 9a3d ff33 bfbd
00000230: 9f0c 5f3d 17c2 a7bd cd3c 453c faeb ec3c
00000240: 0a0b 0f3d 7ba2 8abd 7008 e4bb 312c 173d
00000250: 1d00 c63c b50f bbbc ac0a 7abd 8cee fbbc
00000260: cf17 d7bd c804 84bd 9667 a43b a3da 5abd
00000270: a896 dabd 09a6 89bc c7d7 a43c f6c2 3b3d
00000280: e2b6 bfbb 23b0 6abd f01f 8b3c af7f edbd
00000290: 9ddf a13d 6bfe 103d 318f 283d b8d0 09bd
000002a0: 1c8a dcbd c18f 933d e055 603d f774 4c3d
000002b0: 0f65 03be 6840 f63b 6ad0 e33d 4a63 adbc
000002c0: 526d 0a3d f5d1 ee3c b171 503c 5136 b93d
000002d0: e727 d6bd a783 88bb d637 913d 6f2e db3c
000002e0: 73be d7bd 0f6d 16bd eb1e 313c 4b8e f13a
000002f0: f250 9c3d 7f38 073d e222 cebc 4815 173d
00000300: 2a92 b0bd 39de dcbd c593 4f3c cd3d 993c
00000310: f8f6 ce3d 8f1d 073d 04fc b4bd c77d 643c
00000320: cd9f a1bc af65 243d 7089 95bd 4ec6 813d
00000330: 3cd6 36be 0d15 8bbd a419 af3c 98d4 823d
00000340: 3fa8 443d 2459 ecbd d984 5dbd 7f92 813d
00000350: edd5 633d ec0d 813d 8e24 d13d a990 633c
00000360: e323 5f3b a771 fc3a 2517 09bd fb85 e93d
00000370: 5bc5 c4bc 7ede 933d 51b9 5d3d 1921 953d
00000380: ebbf 70bd 0acc 113d 347c e13c 29e1 f13c
00000390: 2fbf 2d3d f7e5 8ebd eda3 e33c 97eb 9dbd
000003a0: 5239 bbbd a4ce 673d 79e6 503d 4555 4f3d
000003b0: d907 563d 8f3a 103e 11f8 a33d 716e 09be
000003c0: 5286 013e e50e 153a 3046 833d 3a27 e6bd
000003d0: ab75 74bb 8ade 71bc 92e4 2d3c 5c84 54bd
000003e0: 1838 ba3c 4855 f3bd 033a b8bd dc75 de3d
000003f0: 5b9d 33bd b5c8 c33d 7c9d 3c3d 64f3 be3c
-0.005782355 -0.07551035 0.037426777 -0.03373371 0.035324477 0.041281387 -0.058673996 0.063803814
-0.08614632 0.042147536 0.04060511 0.015009208 -0.05016431 -0.057424217 0.12493605 -0.05774461
-0.04622681 -0.07651699 -0.05051116 -0.07170521 -0.1307643 0.109237865 0.060596958 0.024780361
-0.11254686 0.043957453 -0.085214 0.024488136 0.026007634 0.051131368 0.04649792 0.08634454
0.018962868 -0.074384026 -0.008914747 0.049073726 -0.016864242 -0.11026515 -0.07173849 0.051219914
0.015684953 0.055780243 -0.026964761 -0.057377342 0.06479717 -0.08698025 0.052666076 0.0038839055
-0.07162335 0.026717613 -0.07302771 0.04729267 0.07416981 -0.060284022 -0.0868519 0.03889506
0.021768276 -0.038119506 0.062682055 -0.052352667 0.12013675 0.07292939 -0.05718066 -0.033539712
-0.14117561 0.08376792 0.06998392 -0.093765795 0.10908898 0.018741203 -0.022816733 0.02748527
0.004345583 0.08301669 -0.03397631 -0.10078634 0.039612837 -0.062406346 0.036413494 -0.0530729
-0.11147655 -0.024749024 0.07822894 -0.1254157 0.036668975 0.05160352 -0.012018345 -0.08175405
0.08956013 0.07061157 -0.085353315 -0.039689027 0.04091521 -0.08528664 -0.12781091 -0.040129874
0.10228918 0.035006534 -0.08790928 0.042202175 0.04614552 -8.280519e-05 -0.04310293 0.06602625
0.045315128 0.077435434 -0.029898984 0.037035305 -0.052127607 0.0053518014 -0.038907014 -0.038207006
0.085203625 -0.0745915 -0.06398909 -0.07177676 -0.045277625 0.07210388 0.074908905 0.012508042
-0.06370268 -0.07783599 -0.010829339 -0.107269265 0.039238658 -0.08415751 0.07502224 -0.022256684
-0.05946569 -0.10194332 0.034585696 -0.028073538 0.04652227 -0.09998079 0.059829075 0.040051013
0.019716354 -0.024796754 0.07539704 -0.09336089 0.054455396 -0.081913166 0.012038422 0.028921116
0.034922637 -0.06769272 -0.0069590136 0.03690738 0.024169976 -0.022834638 -0.061045334 -0.030753396
-0.10502588 -0.064462245 0.005017231 -0.053431164 -0.10673267 -0.016802805 0.020122422 0.045840226
-0.0058506588 -0.057296883 0.016983002 -0.11596619 0.07903979 0.035398882 0.041152183 -0.033646315
-0.1076853 0.07205153 0.054769397 0.049916234 -0.1283152 0.007515002 0.11123736 -0.021165509
0.033795662 0.02915285 0.012722419 0.09043563 -0.104568295 -0.004166085 0.07090728 0.02675554
-0.10534372 -0.0367251 0.010810594 0.0018429247 0.076326266 0.033012863 -0.025163118 0.03688553
-0.086216286 -0.10784573 0.012669508 0.018706227 0.10105699 0.032987174 -0.08837131 0.013946003
-0.01972952 0.040136036 -0.07301605 0.06336652 -0.17855161 -0.067911245 0.021374531 0.06388205
0.048012014 -0.1154044 -0.05408177 0.0632677 0.055623937 0.063014835 0.102120504 0.01388947
0.003404849 0.0019259945 -0.033469338 0.11402508 -0.024019888 0.072201714 0.05413181 0.072817035
-0.058776777 0.035594977 0.027525045 0.02952631 0.042418655 -0.06977456 0.027788127 -0.07710951
-0.09141792 0.056593552 0.051001046 0.05061843 0.052253578 0.14084838 0.08006299 -0.13421036
0.12648895 0.00056861184 0.064098716 -0.112379506 -0.003730158 -0.01476253 0.010613577 -0.05188404
0.022731826 -0.118815005 -0.0899544 0.10862324 -0.043851238 0.09559766 0.046048626 0.023309417

fc2.bias f4 [10]
00000000: 1f4d 893c 9759 c03d ac38 25bd 6acd b7bd
00000010: c51a 39bd 3356 11bc d1b4 21bd 1fc7 593d
00000020: 6eda ac3d 34ad 973d
0.016760407 0.09392088 -0.04033725 -0.089747265 -0.045191545 -0.008870649 -0.03947908 0.053168412
0.084401 0.07406083
